src/visualize/sequence_output/LastFM_DuoRec/0layer_4iter.npy (npy, 844928 bytes, 1 tensors)

array f4 [66, 50, 64]
-0.31572026 -0.4311916 0.08390804 -0.5326574 0.99896777 0.6265912 0.31282142 -0.15697706
0.22693108 0.31674084 1.6129192 -0.81708205 -0.7908918 0.6105833 -0.70006746 0.364055
-0.51687074 0.6613005 0.009265274 -0.26525626 -0.024450371 0.20132744 2.3179657 0.90990233
0.091238976 -0.35110676 -0.59143656 -5.030902 0.59959656 -0.68519163 0.2920047 0.1921128
-0.63853526 -0.94604003 -0.41320878 0.169292 -0.039883193 -0.0384157 0.6274829 -0.19247991
0.5721704 0.60353607 0.18873616 0.51816916 0.16455555 0.032689244 -0.046877585 0.2139589
-1.6004603 0.6253261 0.56384325 0.24466972 -0.33245298 0.22897947 0.87186724 -0.03431149
0.705207 -0.12231201 -2.2644198 0.8657701 0.1704756 0.8297254 0.048062313 -0.45294034
0.8866964 -0.74701023 0.867831 0.36363986 0.66948587 0.2920555 0.23976862 -0.6556081
-0.07973567 -0.4653516 1.6414138 -0.9039569 0.54254335 2.3786983 0.15910715 0.21378231
-0.012983933 0.75608164 0.037650317 -1.7098035 0.86113125 0.06944044 3.2260888 -0.541472
-0.8640832 0.91894245 0.6051736 -4.0225234 0.5056195 -0.7139481 -0.7225397 -0.66163677
-1.7828996 -0.9346505 0.29243618 -0.30505842 -0.25710103 0.79069734 0.06264204 0.23354958
-0.6863993 0.42170358 -0.29017836 0.6867132 -0.11270792 0.47024456 -1.0862433 0.9811362
-1.2019515 0.13940567 0.82018465 0.1816959 -0.44572094 0.22243726 0.65840876 -1.3060695
0.08146392 0.6912917 -1.3001211 0.10431693 0.85031676 -0.2859605 1.2405292 -0.8624582
0.14584494 -1.4792212 0.38469872 -0.00688315 0.65964013 0.33968213 0.06042422 -0.75595564
0.66684514 -0.4781274 1.1070107 -2.0349772 0.14670463 2.0846972 0.3298686 0.5485897
0.6409542 0.31019092 -0.33849072 -1.507474 0.9204353 -0.06811194 2.5468915 -0.76192325
-0.8930769 1.1837578 0.6998364 -3.6703472 1.0432789 -1.1486064 -0.0058621317 -0.35682964
-1.2319243 -0.42061374 0.96697694 -1.1246579 0.4828454 0.66470265 0.36656985 -0.06931126
-0.5105951 0.570601 -0.5558439 0.7496143 0.20137346 -0.48817223 -1.066547 1.1352571
-1.5259169 -0.60002583 0.9157825 0.5573565 0.0050673373 0.68731093 0.86160433 -0.83509076
0.35438448 -0.040470436 -1.4030249 -0.13604832 0.9483561 -0.5634664 1.4886808 -1.5729431
-0.21217735 -1.5578407 0.5248638 -0.26199317 0.70965785 -0.013426729 0.12569915 0.28159454
-0.092960835 -0.8664563 1.7637869 -1.7287117 0.17585629 2.0475712 -0.3064291 0.110820025
-0.13363163 0.6615746 -0.12758198 -0.88593596 1.0032709 0.41521662 2.8304307 -1.1953931
-1.572711 1.6572828 0.24974445 -4.16385 0.6043217 -0.42033288 -0.05538903 -0.020747013
-1.3372363 -0.26113927 0.61258274 -0.15604113 0.56022036 0.923237 0.46097058 0.07496682
-0.146506 0.34990454 -0.18325822 0.6170789 0.19419113 0.4091619 -0.46913666 0.82038534
-1.0281084 -0.39522582 0.18412587 1.2207364 -0.25571233 0.4705197 1.0093629 -0.5007643
-0.33192632 0.1312395 -1.3245534 -0.08735098 1.0616858 -1.3323131 0.930206 -1.4241678
00000000: 16a6 a1be 25c5 dcbe fad7 ab3d 3c5c 08bf
00000010: 5abc 7f3f 4868 203f 212a a03e 98be 20be
00000020: 9f60 683e db2b a23e 2374 ce3f 4a2c 51bf
00000030: e377 4abf 304f 1c3f 9f37 33bf 6b65 ba3e
00000040: a451 04bf fd4a 293f 60cd 173c abcf 87be
00000050: 254c c8bc c828 4e3e 8d59 1440 5cef 683f
00000060: 80db ba3d 44c4 b3be 6368 17bf 26fd a0c0
00000070: 297f 193f b868 2fbf a481 953e 38b9 443e
00000080: 0c77 23bf ae2f 72bf 1a90 d3be e25a 2d3e
00000090: 8f5c 23bd c859 1dbd b8a2 203f 7419 45be
000000a0: c279 123f 5781 1a3f 0d44 413e bca6 043f
000000b0: 4081 283e 28e5 053d b602 40bd 0b18 5b3e
000000c0: e2db ccbf 5f15 203f 0858 103f b38a 7a3e
000000d0: 4737 aabe 9879 6a3e b132 5f3f 348a 0cbd
000000e0: 7288 343f b87e fabd 41ec 10c0 1ca3 5d3f
000000f0: 2891 2e3e e268 543f fddc 443d cce7 e7be
00000100: 89fe 623f 103c 3fbf 2c2a 5e3f 012f ba3e
00000110: 6d63 2b3f 4c88 953e e885 753e efd5 27bf
00000120: 744c a3bd 9142 eebe d919 d23f b869 67bf
00000130: 1fe4 0a3f 983c 1840 fcec 223e c0e9 5a3e
00000140: 90ba 54bc 918e 413f 3837 1a3d d7da dabf
00000150: 1973 5c3f ca36 8e3d 3d78 4e40 e99d 0abf
00000160: 8e34 5dbf d03f 6b3f a8ec 1a3f 83b8 80c0
00000170: 4870 013f 4dc5 36bf 5df8 38bf 0761 29bf
00000180: 0e36 e4bf 4145 6fbf 32ba 953e 9e30 9cbe
00000190: bfa2 83be 246b 4a3f 784a 803d 9f27 6f3e
000001a0: ddb7 2fbf 88e9 d73e 4292 94be 70cc 2f3f
000001b0: 69d3 e6bd e5c3 f03e 050a 8bbf be2b 7b3f
000001c0: 8cd9 99bf 5cc0 0e3e 9ff7 513f 7d0e 3a3e
000001d0: 8935 e4be 98c6 633e 7a8d 283f 492d a7bf
000001e0: 8ed6 a63d 7ef8 303f 5e6a a6bf 1da4 d53d
000001f0: 5cae 593f 6a69 92be a9c9 9e3f 10ca 5cbf
00000200: 6058 153e 1f57 bdbf 3bf7 c43e 0c8c e1bb
00000210: 2dde 283f d1ea ad3e 637f 773d 4f86 41bf
00000220: 5db6 2a3f 1dcd f4be 87b2 8d3f 113d 02c0
00000230: bd39 163e ae6b 0540 8ae4 a83e 6070 0c3f
00000240: 9315 243f 58d1 9e3e a84e adbe e8f4 c0bf
00000250: a6a1 6b3f 467e 8bbd 4500 2340 670d 43bf
00000260: b0a0 64bf 6085 973f 7a28 333f f8e6 6ac0
00000270: 2a8a 853f 8905 93bf 2017 c0bb 60b2 b6be
00000280: b2af 9dbf af5a d7be cd8b 773f caf4 8fbf
00000290: 8337 f73e f429 2a3f 0baf bb3e 10f3 8dbd
000002a0: 5cb6 02bf e812 123f c94b 0ebf b9e6 3f3f
000002b0: d834 4e3e b6f1 f9be 9d84 88bf 1b50 913f
000002c0: 3f51 c3bf 4b9b 19bf b970 6a3f eaae 0e3f
000002d0: e80b a63b 9cf3 2f3f 1a92 5c3f 82c8 55bf
000002e0: e271 b53e 54c4 25bd 5296 b3bf 4050 0bbe
000002f0: 77c7 723f 563f 10bf 188d be3f 3356 c9bf
00000300: 0545 59be 5367 c7bf 795d 063f f823 86be
00000310: 23ac 353f c8fb 5bbc 47b7 003e 292d 903e
00000320: 4062 bebd 14d0 5dbf c5c3 e13f 6d46 ddbf
00000330: ac13 343e 680b 0340 46e4 9cbe 9cf5 e23d
00000340: bbd6 08be f45c 293f daa4 02be b3cc 62bf
00000350: 2e6b 803f 4697 d43e c725 3540 a402 99bf
00000360: 984e c9bf d821 d43f 02bd 7f3e 423e 85c0
00000370: d4b4 1a3f df35 d7be 9cdf 62bd a4f5 a9bc
00000380: 8f2a abbf 0cb4 85be 39d2 1c3f 3fc9 1fbe
00000390: 9a6a 0f3f 4359 6c3f 5604 ec3e 3488 993d
000003a0: ab05 16be b026 b33e 0ba8 3bbe e2f8 1d3f
000003b0: 0ada 463e ab7d d13e ae32 f0be c604 523f
000003c0: 0e99 83bf 0a5b cabe 7e8b 3c3e 1741 9c3f
000003d0: baec 82be f5e7 f03e ce32 813f 1732 00bf
000003e0: 3ff2 a9be a663 063e f78a a9bf 12e5 b2bd
000003f0: 52e5 873f 3c89 aabf fb21 6e3f 214b b6bf
