src/visualize/sequence_output/LastFM_DuoRec/11layer_4iter.npy (npy, 844928 bytes, 1 tensors)

array f4 [66, 50, 64]
0	0x3da91065	0.0825508
1	0xbf97b6dc	-1.1852679
2	0xbfb81b89	-1.4383403
3	0x3eb4054f	0.351603
4	0x3f9636e1	1.1735498
5	0x3f9df632	1.2340758
6	0x40375a2a	2.8648782
7	0xbf1888b6	-0.59583604
8	0x3e2dfa3a	0.16989985
9	0x3f05b3f0	0.5222769
10	0xbf3e10e3	-0.7424452
11	0xbf4ee421	-0.8081685
12	0x3d7189c5	0.058969278
13	0xbf844acc	-1.0335326
14	0xbf2cfd33	-0.6757385
15	0x3f974cc6	1.1820304
16	0xbf4abb36	-0.7919191
17	0x3fa88b8d	1.3167588
18	0x3fe6da27	1.8035325
19	0xbea9f754	-0.3319651
20	0x3e3eba42	0.18625739
21	0xbf7325d8	-0.9497962
22	0xbf86e018	-1.0537138
23	0x3ea399fc	0.31953418
24	0x3f8b3daa	1.0878193
25	0xbfcd8d33	-1.6058716
26	0xbfc1400f	-1.5097674
27	0x405bb0d5	3.432668
28	0x3f828f5c	1.02
29	0xbf78f071	-0.97241884
30	0xbef6041e	-0.48050016
31	0xbf86b3cc	-1.052362
32	0x3beae5c0	0.0071685016
33	0xbd7ee768	-0.062232405
34	0xbfda1d7b	-1.7040247
35	0xbf50af09	-0.8151708
36	0xbee07b3c	-0.4384402
37	0xbd8ede86	-0.06976037
38	0x3f159aec	0.5843952
39	0xbf884886	-1.0647132
40	0xbe9481fa	-0.29005414
41	0x3efeb6fc	0.4974898
42	0x3b801e1c	0.0039098393
43	0x4015846c	2.3362074
44	0x3ee53c4c	0.44772565
45	0xbf2edb8a	-0.6830374
46	0xbe247858	-0.16061532
47	0xbdf3dd51	-0.11907447
48	0xbff60fca	-1.9223568
49	0xbd03d7c0	-0.032188177
50	0x3d35975a	0.044333793
51	0x3cd50149	0.02600159
52	0x3eaef7ee	0.3417353
53	0x3f33c3b4	0.70220494
54	0xbe931368	-0.28725743
55	0x3f578d98	0.8420043
56	0x3fae3962	1.3611262
57	0xbf2a2d04	-0.6647494
58	0xbd94d6fe	-0.07267569
59	0xbeb57340	-0.3543949
60	0x3d91abf8	0.071128786
61	0x3f00ec73	0.5036079
62	0xbe4eff00	-0.20214462
63	0x3e95c1f0	0.29249525
64	0x3e1274fa	0.14302436
65	0xbf9448e7	-1.1584748
66	0xbe36dd3f	-0.17857836
67	0x3efe5ccc	0.49680173
68	0x3f88a2a8	1.0674639
69	0x3f8f77b4	1.1208405
70	0x402c6b66	2.694055
71	0xbf06cfe5	-0.5266097
72	0xbebf7f18	-0.37401652
73	0x3f72c590	0.94832706
74	0xbf586035	-0.845218
75	0xbf23bf62	-0.639639
76	0xbe564b5b	-0.20927183
77	0xbf7f3e1a	-0.99704134
78	0xbf270360	-0.65239525
79	0x3fdae6ce	1.7101686
80	0xbf8136c5	-1.0094839
81	0x3fb1a08f	1.3877124
82	0x3fcec727	1.6154526
83	0xbf7e8d33	-0.994342
84	0x3ddf0980	0.10890484
85	0xbea209c8	-0.31648088
86	0xbf97b819	-1.1853057
87	0x3ed38928	0.4131558
88	0x3fa9c6ab	1.3263754
89	0xbf8351f6	-1.0259387
90	0xbf987e39	-1.191352
91	0x4089c7d2	4.305642
92	0x3f868692	1.0509818
93	0xbf30ca28	-0.69058466
94	0xbf540a22	-0.8282796
95	0xbee78f3f	-0.45226476
96	0x3e157d56	0.14598593
97	0x3e5bacbc	0.21452612
98	0xbff98eb0	-1.949667
99	0xbf071090	-0.5275965
100	0xbf8536fa	-1.0407403
101	0x3e2c56a7	0.1682993
102	0xbe42963b	-0.19002621
103	0xbf8a32cd	-1.0796753
104	0xbedd2df5	-0.43199125
105	0xbd95d99e	-0.07316898
106	0x3f921c98	1.1414976
107	0x3f9ac4a9	1.2091266
108	0x3f25584f	0.64587873
109	0xbf34586a	-0.7044741
110	0xbe5a609a	-0.21325913
111	0xbd423800	-0.047416687
112	0xbfca547a	-1.580703
113	0xbe194d70	-0.14970946
114	0xbe86f993	-0.26362285
115	0xbe86a6c6	-0.26299113
116	0xbe3f12d1	-0.18659522
117	0x3e98abb0	0.29818487
118	0xbef25633	-0.4733139
119	0x3f50641d	0.8140276
120	0x3f955d15	1.1669031
121	0xbf3266a6	-0.6968788
122	0xbdf2e341	-0.118597515
123	0xbea088f0	-0.31354475
124	0x3d180760	0.03711641
125	0xbe7724e2	-0.24135163
126	0xbe1f6bbc	-0.15568441
127	0x3f0066bd	0.50156766
128	0xbd93a704	-0.0720959
129	0xbfa23f68	-1.26756
130	0x3df234da	0.11826487
131	0xbc9db508	-0.019251361
132	0x3f87278d	1.0558945
133	0x3f9c7868	1.2224245
134	0x40489cc3	3.134568
135	0xbf29e48a	-0.6636435
136	0xbebd7f7e	-0.3701133
137	0x3f2580ec	0.64649844
138	0xbf7ec4b5	-0.995189
139	0xbf4019af	-0.7503919
140	0xbe02e75c	-0.12783569
141	0xbf79de94	-0.9760525
142	0xbc37b4c8	-0.011212535
143	0x3fbe5e25	1.4872481
144	0xbe905449	-0.28189304
145	0x3f90ea92	1.1321585
146	0x3fe012b8	1.7505713
147	0xbf5c7e72	-0.8613044
148	0x3c6ef6ec	0.014585238
149	0xbf0d422b	-0.5517909
150	0xbfadee4b	-1.3588346
151	0x3ec07767	0.37591097
152	0x3fb6c658	1.427928
153	0xbf175e34	-0.5912812
154	0xbf7c4eb4	-0.9855759
155	0x408ec414	4.4614353
156	0x3fc6f787	1.5544289
157	0xbf32d109	-0.6985021
158	0xbf7fb2d9	-0.99882275
159	0xbf1f4d43	-0.6222727
160	0x3d7cc36c	0.061709806
161	0x3ea69a81	0.32539752
162	0xbfcd7a08	-1.6052866
163	0xbf3a11e3	-0.7268354
164	0xbe5966fa	-0.21230689
165	0x3e280c81	0.1641102
166	0xbedec95c	-0.43513
167	0xbfa6ce65	-1.3031737
168	0xbef5a40d	-0.47976723
169	0xbdd2090c	-0.10255632
170	0x3f482ffa	0.78198206
171	0x3ef39b5a	0.4757946
172	0x3f434c12	0.7628795
173	0xbf547f57	-0.83006805
174	0xbe134752	-0.14382675
175	0x3d58abe4	0.052898303
176	0xbfb6e3c0	-1.4288254
177	0xbe165b7b	-0.14683335
178	0xbd6d54a0	-0.057942033
179	0xbe59fad6	-0.21287093
180	0x3e8c77a7	0.27435037
181	0x3ecb6948	0.3972876
182	0xbf181d77	-0.5941996
183	0x3ea804da	0.328162
184	0x3fa0aa8d	1.2552048
185	0xbf13460f	-0.57528776
186	0xbd7aa2df	-0.061190482
187	0xbf14f5e0	-0.58187675
188	0xbd8a4b86	-0.06752686
189	0xbea558c0	-0.32294273
190	0xbe966c48	-0.29379487
191	0x3d4b65ae	0.049657516
192	0xbd857044	-0.065155536
193	0xbfc5fdd6	-1.546809
194	0x3daadd43	0.083429836
195	0xbe1c8e39	-0.15288629
196	0x3f7e677f	0.9937667
197	0x3f9faa02	1.2473757
198	0x402d08e4	2.7036676
199	0xbe245bae	-0.16050598
200	0xbee86f21	-0.45397285
201	0x3f0a564a	0.54037917
202	0xbf59dabf	-0.85099405
203	0xbf37670f	-0.7164163
204	0xbe472121	-0.19446231
205	0xbf8455c0	-1.0338669
206	0xbf249c08	-0.64300585
207	0x3fce7ddb	1.6132158
208	0xbf188edc	-0.59592986
209	0x3fadfe90	1.3593311
210	0x3fc74bf6	1.5570056
211	0xbf07a2c9	-0.52982765
212	0x3d850207	0.06494527
213	0xbe456a94	-0.19278938
214	0xbfa7ce96	-1.310992
215	0x3ef6c0d8	0.48194003
216	0x3fae825e	1.3633535
217	0xbf5093a7	-0.814753
218	0xbfaacddf	-1.3344077
219	0x4092e776	4.5907545
220	0x3f89c367	1.0762757
221	0xbf071d65	-0.5277923
222	0xbf5d95d6	-0.86556756
223	0xbf119dc1	-0.5688134
224	0x3e4f55d8	0.2024759
225	0x3e9ba668	0.30400395
226	0xbfe05899	-1.7527038
227	0xbf05f797	-0.5233092
228	0xbeaf196c	-0.34199083
229	0x3dca60ba	0.098817304
230	0xbe66ab11	-0.22526194
231	0xbf8b3a89	-1.0877239
232	0xbf06111e	-0.5236987
233	0xbe029950	-0.12753797
234	0x3f801411	1.0006124
235	0x3f5f3282	0.87186444
236	0x3f1da61c	0.6158159
237	0xbf3b916e	-0.73268783
238	0x3edb3d51	0.42820218
239	0xbe816761	-0.25274184
240	0xbfbcba46	-1.4744346
241	0xbe2b863d	-0.16750427
242	0xbe5ed572	-0.2176111
243	0xbe44ef45	-0.19231899
244	0xbe84374c	-0.25823438
245	0x3edea2e0	0.4348364
246	0xbf2d5c04	-0.6771853
247	0x3f6e6483	0.9312212
248	0x3f8521f6	1.0400989
249	0xbf638d19	-0.8888717
250	0xbd514ba0	-0.051097512
251	0xbeca6a9a	-0.39534456
252	0xbc8ac8b6	-0.01694141
253	0xbf257e79	-0.64646107
254	0xbe654c4f	-0.2239239
255	0x3f08dd5d	0.53462774
