src/visualize/sequence_output/LastFM_DuoRec/5layer_4iter.npy (npy, 844928 bytes, 1 tensors)

array f4 [66, 50, 64]
0	0x3e1dad7b	0.15398209
1	0xbf4da85f	-0.8033504
2	0xbf3466d2	-0.7046939
3	0xbe429ea6	-0.19005832
4	0x3f310567	0.6914887
5	0x3f6161e0	0.8803997
6	0x401375a1	2.3040545
7	0xbe1c6204	-0.15271765
8	0x3ed11bc6	0.40841502
9	0x3da93f42	0.082640186
10	0xbc2e9f32	-0.010658072
11	0xbf9d04a6	-1.2267044
12	0xbe14286c	-0.14468545
13	0xbf34d50a	-0.7063757
14	0xbec4bc06	-0.384247
15	0x3fde006e	1.7343881
16	0xbf817d95	-1.011645
17	0x3f56dd18	0.8393111
18	0x3f8e0d58	1.1097822
19	0xbeef0966	-0.46686858
20	0xbeef45c0	-0.46732903
21	0xbecaf8db	-0.39642987
22	0x3cb3ab06	0.021932136
23	0x3fd6ba3c	1.6775584
24	0x3f3b0983	0.7306139
25	0xbfbbd7ae	-1.4675195
26	0xbfb3697a	-1.4016564
27	0x3feea08e	1.8642747
28	0x3f9dc80c	1.2326674
29	0xbf6a7f67	-0.9160065
30	0xbe777c78	-0.24168575
31	0x3deb4339	0.11487431
32	0xbe4ac996	-0.19803461
33	0xbf1f5cde	-0.6225108
34	0xbfb32995	-1.3997065
35	0xbf81bd55	-1.0135905
36	0xbeed6a71	-0.4637027
37	0x3eaeb1b4	0.34119952
38	0x3e1ef47c	0.15522951
39	0xbefac21f	-0.48976228
40	0x3f9d4654	1.2287087
41	0x3e21a3d0	0.15785146
42	0x3dc17f50	0.09448111
43	0x40028eac	2.039958
44	0xbe993820	-0.29925632
45	0xbf2171f9	-0.63064533
46	0xbe15d39e	-0.14631507
47	0xbefa7ea0	-0.48924732
48	0xc038ac7c	-2.8855276
49	0xbe295ed5	-0.16540082
50	0x3f1a48d1	0.6026736
51	0x3b2535c0	0.002520904
52	0x3cd51a7d	0.026013607
53	0x3ec8f517	0.3924949
54	0x3f20ec6b	0.62860745
55	0x3f184f29	0.5949579
56	0x3fc242b1	1.5176603
57	0xbf9b3e35	-1.2128359
58	0xc03e89b4	-2.9771547
59	0x3e5224a6	0.20521793
60	0x3f1bef4e	0.60912025
61	0x3ecb383a	0.39691335
62	0x3ea689db	0.3252705
63	0x3ec34452	0.38138062
64	0x3f351c4e	0.70746315
65	0xbf85d246	-1.0454795
66	0x3e91a6d5	0.28447595
67	0x3d7d0ec7	0.06178167
68	0x3f258f92	0.64672196
69	0x3f1d1a31	0.6136809
70	0x4009d31a	2.1535096
71	0xbe4f13e4	-0.20222431
72	0xbe3e31cc	-0.18573684
73	0x3e89f871	0.26947358
74	0xbedd67d5	-0.4324328
75	0xbf81b6d0	-1.0133915
76	0x3c5f45e4	0.013627503
77	0xbf0e16d8	-0.55503607
78	0xbe0abdc5	-0.13548954
79	0x400489e5	2.0709164
80	0xbf88eddf	-1.0697592
81	0x3f88676c	1.0656562
82	0x3f644270	0.89163876
83	0xbfd2eb67	-1.6478089
84	0xbe458fea	-0.1929318
85	0x3d95fc96	0.073235676
86	0x3d50f24a	0.051012315
87	0x3fbfc42e	1.4981744
88	0x3f0bdf1c	0.5463731
89	0xbf44de84	-0.7690203
90	0xbf81e10f	-1.0146807
91	0x403db403	2.964112
92	0x3fbb0820	1.4611855
93	0xbf7defdd	-0.9919413
94	0xbf228bc9	-0.63494545
95	0x3ec14b00	0.37752533
96	0xbea936ec	-0.33049715
97	0xbeb7f35f	-0.35927865
98	0xbfb6cf1c	-1.4281955
99	0xbf7c8087	-0.9863362
100	0xbf672e20	-0.90304756
101	0x3f89d027	1.0766648
102	0xbf089eac	-0.53367114
103	0xbf09b8c3	-0.5379755
104	0x3f83afcf	1.0288028
105	0xbea6c276	-0.32570237
106	0x3f347498	0.7049041
107	0x3f98dcec	1.194242
108	0xbea3bd30	-0.31980276
109	0xbf2d9c20	-0.6781635
110	0xbed8863d	-0.42289916
111	0xbe7c87e3	-0.24661212
112	0xc0220d7e	-2.5320735
113	0xbed98aaf	-0.4248862
114	0x3f1a73fa	0.60333216
115	0xbe01990e	-0.12656042
116	0xbed9599b	-0.42451176
117	0x3d0c3c49	0.03423718
118	0x3eea60dd	0.45777026
119	0x3ee9c398	0.4565704
120	0x3fb43045	1.4077231
121	0xbf9f1c62	-1.2430537
122	0xc01d3380	-2.4562683
123	0xbd9cfdd0	-0.076655984
124	0x3f3ba5d4	0.7329991
125	0xbeea50fb	-0.45764908
126	0x3f38bbf7	0.7216181
127	0x3ea528f0	0.32257795
128	0x3ef8d5a9	0.4860051
129	0xbfaff460	-1.3746452
130	0x3ed15703	0.40886697
131	0xbe9cb914	-0.30609953
132	0x3f2598bf	0.646862
133	0x3f4e9b4d	0.8070572
134	0x40161cb9	2.345503
135	0xbed6d4fd	-0.41959372
136	0xbce89b50	-0.028394371
137	0xbd1b2a6d	-0.037882257
138	0xbf0a86be	-0.5411185
139	0xbfc2b76f	-1.521223
140	0xbe068def	-0.13140081
141	0xbf14aecc	-0.5807922
142	0x3f0a69e9	0.54067856
143	0x4008c355	2.1369221
144	0xbecf0de2	-0.4044028
145	0x3f5556d5	0.8333562
146	0x3f6e56f9	0.9310146
147	0xbfc0b01c	-1.5053744
148	0xbe153027	-0.1456915
149	0xbdaa501c	-0.08316061
150	0xbe358d6a	-0.17729726
151	0x3fbc192a	1.469518
152	0x3f1d48b1	0.61439043
153	0xbe8a323d	-0.26991454
154	0xbf46034a	-0.7734877
155	0x404c6f3c	3.1942892
156	0x3fe3666a	1.7765629
157	0xbf6fd26e	-0.93680465
158	0xbf24cf25	-0.6437858
159	0x3eaf001d	0.34179774
160	0xbe5450f5	-0.20734008
161	0xbe69db3f	-0.22837542
162	0xbf84b2a6	-1.0367019
163	0xbf9aa673	-1.2082046
164	0xbe2d69bb	-0.16934864
165	0x3f6f122c	0.93387103
166	0xbf218d51	-0.63106257
167	0xbf0c8685	-0.5489276
168	0x3f8254bf	1.0182112
169	0xbe836e48	-0.25670075
170	0x3ea1653e	0.31522554
171	0x3f3314a7	0.6995339
172	0xbe8fa2fd	-0.28054038
173	0xbfa273e4	-1.2691617
174	0xbe99b3a2	-0.3001986
175	0xbd61ff6a	-0.055175222
176	0xc017fac6	-2.374681
177	0xbf18595d	-0.5951136
178	0x3f4724fa	0.77790797
179	0xbd8c261e	-0.06843208
180	0x3a92a7d0	0.0011188928
181	0x3e22552e	0.15852806
182	0x3eb59eab	0.35472617
183	0xbaf2fbee	-0.0018538216
184	0x3fb589e8	1.4182711
185	0xbf921f85	-1.1415869
186	0xc01952dc	-2.3956823
187	0xbd9cef5e	-0.07662843
188	0x3f246ac8	0.64225435
189	0xbf068a47	-0.52554744
190	0x3f099cb6	0.53754747
191	0xbe3c478e	-0.18386671
192	0x3e946f88	0.28991342
193	0xbfc8a1de	-1.5674398
194	0x3f107d4e	0.564412
195	0xbf117afd	-0.5682829
196	0x3f31ee21	0.6950398
197	0x3f31ab5b	0.6940209
198	0x400768f2	2.1157804
199	0x3e67cc5e	0.22636554
200	0xbe96af81	-0.29430774
201	0xbe6a6fe3	-0.22894244
202	0xbebf2c86	-0.37338656
203	0xbfb9eef4	-1.4526048
204	0xbdd711fc	-0.10501477
205	0xbf32d28d	-0.69852525
206	0xbe2abdde	-0.16673991
207	0x40030e9a	2.0477662
208	0xbf433702	-0.7625581
209	0x3f894918	1.0725431
210	0x3f5a3926	0.8524345
211	0xbf9a904b	-1.2075285
212	0x3ce3a1fd	0.027787203
213	0x3e347e43	0.1762629
214	0x3d13f530	0.0361225
215	0x3fb54e7e	1.4164579
216	0x3ed4ac91	0.41537908
217	0xbf002e9e	-0.5007113
218	0xbf921dbd	-1.1415325
219	0x4049e393	3.154515
220	0x3fbe5922	1.4870951
221	0xbf4cb77f	-0.7996749
222	0xbf1f78df	-0.6229381
223	0x3ead5f3b	0.33861718
224	0xbe65f709	-0.22457518
225	0xbe7dcb2f	-0.2478454
226	0xbf9e0963	-1.2346615
227	0xbf6938a5	-0.9110206
228	0xbe948080	-0.29004288
229	0x3f91ec2c	1.1400199
230	0xbf00ea6f	-0.5035772
231	0xbf0313a3	-0.5120184
232	0x3f9f4b3d	1.2444836
233	0xbe9ec02a	-0.31005985
234	0x3f1d9b48	0.61565065
235	0x3f793352	0.97343934
236	0xbeb11520	-0.3458643
237	0xbf35d182	-0.7102281
238	0x3e2ba5d8	0.16762483
239	0xbf0292dd	-0.51005346
240	0xc018d7ff	-2.3881834
241	0xbf30fc59	-0.6913505
242	0x3f06d5fa	0.5267025
243	0x3d3dae8e	0.046309046
244	0xbf0593cd	-0.5217865
245	0x3de5b61d	0.11216376
246	0x3ef557ec	0.47918642
247	0x3f04e7a8	0.5191598
248	0x3f9f6e74	1.2455583
249	0xbfae4277	-1.3614033
250	0xc01e6260	-2.4747543
251	0xbd5dd271	-0.05415577
252	0x3f3e9724	0.7444937
253	0xbf47c4d7	-0.7803473
254	0x3f186ebd	0.59543973
255	0x3e817b10	0.25289202
