src/visualize/sequence_output/LastFM_FMLPRec/5layer_4iter.npy (npy, 844928 bytes, 1 tensors)

array f4 [66, 50, 64]
0.14983809 0.04835847 0.93950444 0.37812418 0.5667736 -1.8232472 -1.4672053 0.8305928
-0.2520516 0.08240961 -0.040159892 0.44116652 0.5070099 -0.19843735 -1.0918071 0.14077854
0.05206677 0.19322768 0.08560765 0.38521892 0.74180144 -1.0671782 0.017200377 1.8833965
-1.5908152 0.3173906 0.8947728 -0.106531404 0.22377364 -0.12941448 2.3923762 -0.94502026
1.3911498 -0.33804017 -0.11180888 1.9322517 0.5718349 0.36814055 0.588203 -0.56713694
-3.8773885 0.5173873 -0.2953618 -0.7368377 0.31029612 -0.8274001 0.33910313 -0.21637292
-0.15789713 -0.015943091 1.1677605 0.039819777 -0.52156943 -0.06359012 -0.31764746 0.32196394
0.62126184 -0.0065648067 -0.59961104 -2.9423277 -0.042707726 0.4291584 1.0198286 0.06504631
0.21189788 0.090280354 0.8947423 0.29766542 0.50244397 -1.827887 -1.4616456 0.811242
-0.11422321 0.09203338 -0.04805358 0.50061923 0.47286195 -0.11057295 -1.1986223 0.13981292
0.09219273 0.26883525 0.06957874 0.37034485 0.6907866 -1.0187567 0.04832934 1.8408237
-1.5155827 0.2775894 0.82839674 -0.08293608 0.23786241 -0.08331767 2.3185813 -1.0131508
1.5510881 -0.27448377 -0.11758111 1.8529549 0.62743485 0.4493956 0.5805177 -0.6059592
-3.883486 0.5870694 -0.2693664 -0.8962644 0.27990723 -0.78742343 0.3536483 -0.19193655
-0.3187718 0.009445782 1.1508512 0.13292119 -0.5012232 -0.13251942 -0.26838592 0.27455658
0.6838643 -0.008974101 -0.68063205 -2.9545608 -0.06675783 0.34041482 1.0555499 0.044008408
0.06856043 0.12711234 1.0149255 0.22376178 0.45714104 -1.7985213 -1.4246459 0.9115711
-0.09237072 0.12726729 0.003188091 0.45875052 0.50700456 -0.19166464 -1.2819837 0.08936019
0.1345918 0.181191 0.10528165 0.3388429 0.63938826 -0.9434683 -0.020039057 1.8189578
-1.566078 0.35564375 0.8622638 -0.12248667 0.28310227 -0.11622569 2.3328898 -0.9847121
1.6703142 -0.2896555 -0.016009297 1.8902165 0.5518804 0.37223536 0.5489074 -0.55291957
-3.8828511 0.43921128 -0.118749596 -1.0207449 0.30524167 -0.6888974 0.33228797 -0.14775129
-0.30008516 -0.08957703 1.1436894 0.16791072 -0.41636065 -0.13121521 -0.32926047 0.3175712
0.6480019 -0.0152870435 -0.68039775 -2.938378 -0.014918564 0.24800372 1.0115893 0.09165861
0.21823399 0.16363983 0.961768 0.25027308 0.367448 -1.7563475 -1.4168097 0.7318116
-0.008949252 0.08717579 0.03428474 0.46249372 0.4924992 -0.1956334 -1.2689637 0.07029347
0.15866202 0.13618776 0.052932408 0.32105166 0.4986358 -0.8833162 -0.006533472 1.8410137
-1.5433583 0.29552406 0.9433254 -0.10256271 0.17703742 -0.1330711 2.3381147 -1.0298319
1.7369993 -0.3055969 -0.11180656 1.8538156 0.6343681 0.5275766 0.4805294 -0.45387048
-3.9016557 0.37680793 -0.14642322 -1.0623846 0.37761286 -0.7675721 0.40539172 -0.0739059
-0.27662686 -0.022136819 1.0059935 0.28143296 -0.5280951 -0.087117836 -0.2788028 0.31139895
0.6467804 0.027127616 -0.62248117 -2.9908042 0.01199591 0.2520633 1.0344547 0.0020601666
00000000: 286f 193e 8813 463d 5d83 703f 7e99 c13e
00000010: 1318 113f 2a60 e9bf 62cd bbbf bba1 543f
00000020: e80c 81be 5fc6 a83d b37e 24bd 94e0 e13e
00000030: 67cb 013f 2933 4bbe 56c0 8bbf 4028 103e
00000040: f743 553d 7add 453e 1053 af3d 6a3b c53e
00000050: b3e6 3d3f 4c99 88bf cee7 8c3c 2313 f13f
00000060: d59f cbbf 0581 a23e d50f 653f 232d dabd
00000070: eb24 653e 3b85 04be b11c 1940 d9ec 71bf
00000080: 3211 b23f 9a13 adbe 0efc e4bd 0654 f73f
00000090: c663 123f eb7c bc3e 7994 163f e32f 11bf
000000a0: 2227 78c0 7e73 043f a939 97be 65a1 3cbf
000000b0: 22df 9e3e 7ed0 53bf ed9e ad3e dd90 5dbe
000000c0: c9af 21be 169b 82bc 2d79 953f 101a 233d
000000d0: 9385 05bf 893b 82bd b0a2 a2be 75d8 a43e
000000e0: 040b 1f3f 971d d7bb 1c80 19bf 194f 3cc0
000000f0: 4cee 2ebd a6ba db3e be89 823f 0037 853d
00000100: c2fb 583e e8e4 b83d d50d 653f 9a67 983e
00000110: 2ba0 003f 34f8 e9bf 3417 bbbf 8ead 4f3f
00000120: dced e9bd ff7b bc3d d5d3 44bd 9528 003f
00000130: f61a f23e 1274 e2bd 756c 99bf 1e2b 0f3e
00000140: 8bcf bc3d c6a4 893e 4c7f 8e3d d79d bd3e
00000150: 64d7 303f 9f66 82bf fcf4 453d 1ca0 eb3f
00000160: 9dfe c1bf 3320 8e3e cf11 543f 64da a9bd
00000170: 3492 733e 74a2 aabd a363 1440 edae 81bf
00000180: 0e8a c63f 2389 8cbe 5dce f0bd a02d ed3f
00000190: 929f 203f 2e17 e63e cf9c 143f 2420 1bbf
000001a0: 098b 78c0 2e4a 163f 65ea 89be 9571 65bf
000001b0: 0050 8f3e 9594 49bf 6411 b53e 048b 44be
000001c0: 0f36 a3be 7bc2 1a3c 184f 933f 7e1c 083e
000001d0: 2a50 00bf 2cb3 07be e169 89be ae92 8c3e
000001e0: bb11 2f3f 1c08 13bc e73d 2ebf 8617 3dc0
000001f0: 54b8 88bd da4a ae3e 421c 873f 2942 343d
00000200: 6969 8c3d bd29 023e 14e9 813f cf21 653e
00000210: 640e ea3e f235 e6bf cc5a b6bf b95c 693f
00000220: dc2c bdbd 5b52 023e 4bef 503b 59e1 ea3e
00000230: 0dcb 013f bc43 44be 0b18 a4bf 7a02 b73d
00000240: 6fd2 093e 228a 393e e89d d73d d17c ad3e
00000250: f3ae 233f 2387 71bf f328 a4bc 9cd3 e83f
00000260: 3e75 c8bf f016 b63e 52bd 5c3f 4bda fabd
00000270: c8f2 903e bc07 eebd 114e 1540 1816 7cbf
00000280: dbcc d53f ba4d 94be ee25 83bc 9df2 f13f
00000290: 0948 0d3f a295 be3e 3285 0c3f 238c 0dbf
000002a0: a280 78c0 4de0 e03e fd32 f3bd c5a7 82bf
000002b0: a348 9c3e 945b 30bf a621 aa3e 1d4c 17be
000002c0: c3a4 99be 2974 b7bd 6a64 923f caf0 2b3e
000002d0: 392d d5be 485d 06be d494 a8be b198 a23e
000002e0: 74e3 253f 8276 7abc 8c2e 2ebf 630e 3cc0
000002f0: fe6c 74bc b0f4 7d3e c27b 813f 82b7 bb3d
00000300: bb78 5f3e 3391 273e 6d36 763f cb23 803e
00000310: 2522 bc3e ffcf e0bf 055a b5bf 0158 3b3f
00000320: e29f 12bc 3889 b23d 286e 0c3d facb ec3e
00000330: db28 fc3e 1f54 48be 676d a2bf 06f6 8f3d
00000340: 4c78 223e ce74 0b3e a7cf 583d e260 a43e
00000350: 314d ff3e 0321 62bf bc16 d6bb 56a6 eb3f
00000360: c48c c5bf ee4e 973e c67d 713f 660c d2bd
00000370: 4c49 353e ca43 08be aca3 1540 88d1 83bf
00000380: fe55 de3f 3277 9cbe d6fa e4bd d449 ed3f
00000390: f365 223f 430f 073f f307 f63e b661 e8be
000003a0: bab4 79c0 f8ec c03e f8ef 15be 38fc 87bf
000003b0: 7956 c13e 9b7f 44bf 818f cf3e fa5b 97bd
000003c0: 09a2 8dbe 4658 b5bc 65c4 803f fb17 903e
000003d0: 3e31 07bf d66a b2bd 3ebf 8ebe af6f 9f3e
000003e0: 6693 253f bc3a de3c ed5a 1fbf 5669 3fc0
000003f0: 7e8a 443c 710e 813e 0369 843f dc03 073b
