src/visualize/sequence_output/LastFM_FMLPRec/6layer_4iter.npy (npy, 844928 bytes, 1 tensors)

array f4 [66, 50, 64]
0	0x3e433cdb	0.19066183
1	0x3eb17450	0.34659052
2	0x3f65e68e	0.89804924
3	0x3e8e2c22	0.27768046
4	0x3f11ce65	0.5695556
5	0xbff70056	-1.9296978
6	0xbfd1d86c	-1.6394172
7	0x3f4b6e67	0.79465336
8	0xbe7352f8	-0.23762119
9	0xbd606b5e	-0.054789893
10	0x3d75d334	0.060015872
11	0x3f2b7bae	0.66985595
12	0x3f125a29	0.57168823
13	0xbebe1b52	-0.3713022
14	0xbf586b06	-0.84538305
15	0x3e461cb0	0.19346881
16	0x3d8c4671	0.06849373
17	0xbc11817c	-0.008880969
18	0x3e2079f4	0.15671521
19	0xbce083d5	-0.027406612
20	0x3f5e9b6e	0.86955917
21	0xbf691cf0	-0.9105978
22	0x3c80a6b0	0.015704483
23	0x3fd957c4	1.6979909
24	0xbfa25f1a	-1.2685273
25	0x3e868ff9	0.26281717
26	0x3f8b98b0	1.0905972
27	0x3f5823ac	0.8442943
28	0x3e7c0114	0.24609786
29	0x3d7eacf3	0.062176656
30	0x40296592	2.6468244
31	0xbe8cb12a	-0.27478915
32	0x3f9e399b	1.236133
33	0xbed942d1	-0.4243379
34	0xbe2d803d	-0.1694345
35	0x3fd4cf99	1.6625854
36	0x3d978412	0.07398237
37	0x3e9a2395	0.30105272
38	0x3f467c49	0.77533394
39	0xbf4221d8	-0.7583289
40	0xc080b8e2	-4.0225687
41	0x3ebd3971	0.36957887
42	0xbf02ea4b	-0.5113875
43	0xbeee0416	-0.46487492
44	0x3f030dfe	0.51193225
45	0xbf12bc4e	-0.5731858
46	0x3e639982	0.22226527
47	0xbeb17673	-0.34660682
48	0xbea66b63	-0.32503805
49	0xbda9f622	-0.08298899
50	0x3f8cef1c	1.101047
51	0xbba6d964	-0.005091833
52	0xbed656d5	-0.41863123
53	0xbefaabed	-0.48959294
54	0xbefa7b9c	-0.4892243
55	0x3e9fb54f	0.31193015
56	0x3ede32db	0.43398175
57	0x3cf39383	0.029733425
58	0xbedb4c64	-0.4283172
59	0xc049654a	-3.1468072
60	0xbd8f6af1	-0.07002819
61	0x3ed3faba	0.41402227
62	0x3f6a6f11	0.91575724
63	0xbe045a2e	-0.12925026
64	0x3eab06ca	0.33403617
65	0x3ebb4e73	0.3658329
66	0x3f64e430	0.89410686
67	0x3e2e799c	0.17038578
68	0x3f078733	0.5294067
69	0xbff8656f	-1.9405955
70	0xbfd09d32	-1.6297972
71	0x3f4082ba	0.7519947
72	0xbe19f1dc	-0.15033668
73	0xbd211cf2	-0.039334245
74	0x3d0f0799	0.034919355
75	0x3f3bec8e	0.7340783
76	0x3f0b5237	0.54422325
77	0xbe9d7bb8	-0.30758452
78	0xbf6ac217	-0.9170241
79	0x3e4d11c6	0.20026311
80	0x3da7f1a8	0.08200389
81	0x3d5ab39d	0.05339395
82	0x3e1f7b09	0.15574278
83	0xbd67ddec	-0.056608126
84	0x3f5257ee	0.8216542
85	0xbf60c020	-0.8779316
86	0x3d09117f	0.03346395
87	0x3fd5090e	1.6643388
88	0xbf9e81cb	-1.238336
89	0x3e82318b	0.25428423
90	0x3f893998	1.0720701
91	0x3f5db8d8	0.86610174
92	0x3e6000f7	0.21875368
93	0x3dab6130	0.083681464
94	0x402641ea	2.597773
95	0xbe9fad99	-0.31187132
96	0x3fb14bc6	1.3851249
97	0xbebfe585	-0.37479797
98	0xbe381492	-0.17976597
99	0x3fcca6c1	1.5988389
100	0x3db5da99	0.08879585
101	0x3eae802e	0.34082168
102	0x3f45d167	0.7727265
103	0xbf4db433	-0.8035309
104	0xc080b86b	-4.022512
105	0x3ece3627	0.4027569
106	0xbeee022a	-0.46486026
107	0xbf115400	-0.567688
108	0x3ef8e647	0.48613188
109	0xbf09ee0d	-0.5387886
110	0x3e675967	0.22592698
111	0xbe99f172	-0.3006702
112	0xbee48772	-0.44634587
113	0xbd34bc59	-0.044124935
114	0x3f89f221	1.0777017
115	0x3d7d2d86	0.061810993
116	0xbee8e105	-0.45484176
117	0xbf040c4d	-0.5158127
118	0xbef7e620	-0.4841776
119	0x3e96582a	0.2936414
120	0x3eea3160	0.45740795
121	0x3d8b92ea	0.06815131
122	0xbefcc969	-0.49372414
123	0xc04afbf3	-3.1716278
124	0xbd708bd7	-0.05872711
125	0x3e9fe55d	0.31229678
126	0x3f6d6041	0.92724997
127	0xbdd6bd55	-0.10485331
128	0x3e3104f6	0.17287049
129	0x3ec5cc32	0.3863235
130	0x3f6596ed	0.8968342
131	0x3e12bbbe	0.1432943
132	0x3f06dc13	0.52679557
133	0xbffaedc2	-1.9603808
134	0xbfd02c16	-1.6263454
135	0x3f4864d0	0.7827883
136	0xbe0501b0	-0.12988925
137	0xbc87ea69	-0.016591268
138	0x3d940188	0.072268546
139	0x3f319e79	0.69382435
140	0x3f104fec	0.5637195
141	0xbeb3c6e6	-0.35112685
142	0xbf764772	-0.96202767
143	0x3e2340e3	0.15942721
144	0x3e01d374	0.12678319
145	0xbd10fa3d	-0.035394896
146	0x3e20f6a2	0.15719083
147	0xbd52423c	-0.051332697
148	0x3f49ad4b	0.7878005
149	0xbf5ee6ed	-0.87071115
150	0x3c9931b9	0.018700467
151	0x3fcf18f6	1.6179492
152	0xbf9c9f2d	-1.2236077
153	0x3ea18015	0.3154303
154	0x3f8f91bf	1.1216353
155	0x3f5961fa	0.84915125
156	0x3e8282b3	0.2549034
157	0x3da8017e	0.082034096
158	0x4024e538	2.5764904
159	0xbe964cce	-0.29355472
160	0x3fbf9f51	1.4970495
161	0xbebbe637	-0.36699077
162	0xbe252a8a	-0.16129509
163	0x3fd0e1d9	1.6318923
164	0x3d80f86f	0.06297385
165	0x3ea5b14b	0.32361826
166	0x3f3cb089	0.7370687
167	0xbf4236ff	-0.7586517
168	0xc08047b8	-4.0087547
169	0x3ea6a7e0	0.32549953
170	0xbeb6b3d6	-0.3568408
171	0xbf2c17a2	-0.6722356
172	0x3f016272	0.5054084
173	0xbeec8cb2	-0.46201092
174	0x3e8dcb0f	0.27693984
175	0xbe829cf4	-0.2551037
176	0xbee3b2b7	-0.44472286
177	0xbe05c2b8	-0.1306256
178	0x3f82cc35	1.0218569
179	0x3de96128	0.11395484
180	0xbecb384c	-0.3969139
181	0xbefa93af	-0.489408
182	0xbef51638	-0.47868514
183	0x3ea8e92d	0.329904
184	0x3ee2077b	0.44146332
185	0x3d14d635	0.036337096
186	0xbef8aea5	-0.48570743
187	0xc04db326	-3.2140594
188	0xbc87f8b3	-0.016598081
189	0x3e691f8b	0.22765939
190	0x3f6c2336	0.9224123
191	0xbd995255	-0.07486407
192	0x3e9675f4	0.29386866
193	0x3ecd9799	0.40154722
194	0x3f5a84a0	0.8535862
195	0x3e192a5c	0.14957565
196	0x3ef9ca50	0.48787165
197	0xbff8a561	-1.942547
198	0xbfcba8ee	-1.5910928
199	0x3f254145	0.6455272
200	0xbd8afce0	-0.06786513
201	0x3cd9d3c5	0.026590237
202	0x3d99089f	0.074723475
203	0x3f31b2b1	0.69413286
204	0x3f108347	0.56450313
205	0xbeaf765e	-0.34269994
206	0xbf74f0a6	-0.956797
207	0x3e0e0b9e	0.13871619
208	0x3e1593c4	0.1460715
209	0x3cb1f81c	0.021724753
210	0x3db7b4aa	0.08970006
211	0xbd86b677	-0.06577771
212	0x3f327edd	0.6972483
213	0xbf5a76d8	-0.8533759
214	0x3d1904b8	0.037358016
215	0x3fd0b308	1.6304636
216	0xbfa1a814	-1.2629418
217	0x3e8db8ec	0.27680147
218	0x3f95aeb9	1.1693946
219	0x3f619ba0	0.8812809
220	0x3e365775	0.178068
221	0x3d52ea39	0.051492903
222	0x4024819d	2.570411
223	0xbe9cd5a9	-0.3063176
224	0x3fc3b5e3	1.5289882
225	0xbedfb9e0	-0.436965
226	0xbe32c9ad	-0.17459746
227	0x3fcb41b6	1.5879428
228	0x3dc171ea	0.094455555
229	0x3edc68ef	0.43048808
230	0x3f367839	0.71277195
231	0xbf381e6d	-0.71921426
232	0xc08004c8	-4.0005836
233	0x3e8761e1	0.26441863
234	0xbeb57724	-0.3544246
235	0xbf35a47d	-0.70954114
236	0x3f0d70a8	0.55250025
237	0xbf0ac515	-0.54206973
238	0x3ec2256e	0.37919182
239	0xbe815f9c	-0.25268257
240	0xbed752a3	-0.42055234
241	0xbd785280	-0.060625553
242	0x3f6c52a4	0.923136
243	0x3e3dbbec	0.18528718
244	0xbefbe6a5	-0.49199405
245	0xbeeb3fd9	-0.4594715
246	0xbeefb7f7	-0.46820042
247	0x3eb4ac73	0.35287818
248	0x3ef8acb1	0.48569253
249	0x3dd1480c	0.1021882
250	0xbeed5e08	-0.46360803
251	0xc0513a8e	-3.269199
252	0xbc988206	-0.018616688
253	0x3e5885cc	0.2114479
254	0x3f686e47	0.9079327
255	0xbdd7cd5f	-0.10537218
