src/visualize/sequence_output/LastFM_SASRec/16layer_4iter.npy (npy, 844928 bytes, 1 tensors)

array f4 [66, 50, 64]
000000 39 63 b6 bf db 9e ee c0 ea 5b 0b c0 8e 04 24 3f
       -1.424903 -7.4568915 -2.177485 0.6406945
000010 10 e4 01 c0 a4 a3 c7 3f 58 ee af 40 12 05 9e 3f
       -2.0295448 1.5596814 5.4978447 1.2345297
000020 31 0a ea c0 7e 0c 18 c0 8b 15 92 c0 e6 93 89 3f
       -7.313744 -2.3757625 -4.5651298 1.074826
000030 4c 75 e8 3e 57 15 3f 3f 95 db 19 3f 44 f8 9b bf
       0.4540199 0.74641937 0.6010068 -1.218514
000040 5a 1f 47 bf 34 e9 ee 3e 09 db 34 3f 30 5b 2c c0
       -0.77782214 0.46662295 0.7064672 -2.6930656
000050 b6 1e c2 bf 66 b6 bd be ca b8 db be 31 43 a4 40
       -1.5165622 -0.3705322 -0.4291442 5.133202
000060 02 39 1c 40 08 b1 68 be 22 fb b4 40 40 3f 50 be
       2.4409795 -0.22723782 5.655656 -0.20336628
000070 13 29 a4 40 06 7b bc 3f a6 c8 60 40 aa 1d a7 3f
       5.130014 1.4725044 3.5122466 1.3055928
000080 0d c0 60 40 70 ba 07 bf ea 30 3b bf ae 4b e1 c0
       3.5117218 -0.53018856 -0.7312151 -7.0404882
000090 80 a9 1a bc 8f ab 2a 40 ec ea af c0 a8 d5 8e 40
       -0.009439826 2.666721 -5.497427 4.463581
0000a0 22 9f b4 3f 5f d7 34 c0 28 47 e1 bf d2 66 19 c0
       1.4111063 -2.8256452 -1.759984 -2.3969007
0000b0 4e eb 8e bf 0c ba 30 3e ab d4 d6 bf 11 03 e4 3f
       -1.1165559 0.17258471 -1.6783651 1.7813436
0000c0 6e 1d 5f bf 98 22 c9 bd 7f 3c 43 40 89 40 4e c0
       -0.8715428 -0.09821051 3.0505674 -3.222689
0000d0 bf 3a df 3f d4 ca 32 3f 8a 7c 7a c0 1c 0f 30 c0
       1.7439803 0.6984074 -3.9138513 -2.7509222
0000e0 18 ca 35 40 cd c5 b5 3f e0 b7 78 3e ee f6 4d 40
       2.8404598 1.4200989 0.24288893 3.2181964
0000f0 ca 73 a6 3f f4 7a 2f be 0e 74 9d bf 1c c7 bd be
       1.3004086 -0.17136747 -1.2301042 -0.3706597
000100 b0 20 62 40 e1 53 b8 c0 de 80 a5 bf f1 0c c3 3e
       3.533245 -5.760239 -1.2929952 0.3809581
000110 17 3b b1 be dc ba 79 be 4c 06 55 40 44 5a 14 3e
       -0.34615394 -0.24387687 3.3285093 0.14487559
000120 2f 63 db c0 43 6d 61 c0 e5 c7 6a 3f 68 97 98 3f
       -6.8558574 -3.5222938 0.91711265 1.1921206
000130 7c 80 ba 3e 49 30 f0 3e d2 db 3b c0 88 ec f0 bf
       0.3642615 0.4691184 -2.9352918 -1.8822184
000140 d4 29 27 40 4e d7 5f 40 75 f6 85 3f 33 50 e2 c0
       2.611928 3.4975162 1.0465838 -7.07229
000150 10 f5 de bf 1b 6b 5f c0 46 8a 8c 3e 29 8d af bf
       -1.7418537 -3.4909122 0.27449244 -1.3714954
000160 2f 11 d3 3e 61 f7 24 c0 53 7d a4 40 f6 b6 77 40
       0.41224048 -2.5775988 5.1402984 3.870542
000170 30 f5 bf 3d 0e 2f 14 40 1d 03 9a 40 80 c2 d8 40
       0.09372938 2.315372 4.81288 6.7737427
000180 5d ae a4 3f cc c7 36 c0 82 bf 74 c0 8b 65 38 c0
       1.2865711 -2.8559446 -3.8241887 -2.8811977
000190 25 fe 13 40 50 ef e7 bf 7c 16 b5 c0 7d 2e 81 bf
       2.3123868 -1.8119907 -5.6589947 -1.0092312
0001a0 56 14 16 40 87 d4 6e bf 18 35 78 3e 46 7f 0c c0
       2.3449912 -0.9329304 0.24239004 -2.1952682
0001b0 18 c0 c8 3e 3a cd 23 40 d5 37 93 bf d4 2c 79 3f
       0.39209056 2.559401 -1.1501414 0.9733403
0001c0 c7 c9 9b bf db dc e4 bf 93 1d 86 40 73 38 8e 3f
       -1.2170953 -1.78799 4.19111 1.1110977
0001d0 34 34 60 40 7c b1 0b 3f 1c 5c d4 bf b1 2d d7 3f
       3.5031862 0.54567695 -1.659061 1.6810819
0001e0 74 02 26 40 b5 cf 69 40 a6 a4 a8 be c9 ca 2b 3f
       2.5938997 3.6533024 -0.32938117 0.671063
0001f0 c1 e4 d0 3f e4 43 0f c0 b2 2e 23 bf 1a 7f a3 c0
       1.631981 -2.2385187 -0.63743126 -5.1092653
000200 06 48 1f 40 e5 dc 51 c0 b8 45 f2 bf 82 81 2f 3f
       2.488771 -3.2791073 -1.8927526 0.6855699
000210 18 f7 b3 bd 73 cd 1e 3f 50 92 23 40 90 c9 40 be
       -0.08787364 0.6203224 2.5558052 -0.1882689
000220 11 2b 1d c1 6e a4 52 c0 e6 49 47 bf ef 7f 8d 3f
       -9.823014 -3.291286 -0.77847135 1.1054667
000230 72 ff 27 be be 63 4e 3f d4 71 27 c0 ed 49 af c0
       -0.16406038 0.80620944 -2.6163225 -5.477774
000240 1d 3f c1 40 7f 9e ab 40 70 77 93 3f 4c 77 c0 c0
       6.0389543 5.3630977 1.1520824 -6.0145626
000250 0b 78 13 c0 5c 82 37 c0 23 a0 0a c0 56 cc 1c c0
       -2.3042018 -2.8673315 -2.166024 -2.4499717
000260 96 6a 9c be 29 94 58 c0 77 47 92 40 c7 a2 31 40
       -0.3055007 -3.384043 4.5712237 2.7755601
000270 ee fa a5 3f b3 b0 2a 40 e2 30 9d 40 f1 6c 83 40
       1.2967203 2.6670349 4.912217 4.1070485
000280 f0 00 91 3f f8 d2 ea bf d6 1b 8c c0 b8 05 2c bf
       1.1328411 -1.8345633 -4.378398 -0.67196226
000290 15 b6 10 40 24 22 6b be 38 8f 93 c0 fb c5 98 bf
       2.2611134 -0.22962242 -4.6112328 -1.1935419
0002a0 9e 60 cb 3f 40 35 79 3e dc b6 4d 40 d2 69 16 c0
       1.588886 0.2433672 3.2142859 -2.3502088
0002b0 ea 04 08 3f a6 91 e7 be e6 a2 5d bf 68 83 63 3f
       0.531325 -0.45228308 -0.8657669 0.88872385
0002c0 ca 27 c7 bf 3a 7e 1e c0 e9 32 aa 3f 88 82 3d 3e
       -1.5559018 -2.4764543 1.3296787 0.18506825
0002d0 ca 21 5d 40 0a da 1e 40 3d 05 4e c0 4a 75 f2 3f
       3.4551873 2.482058 -3.2190697 1.8942044
0002e0 d8 cf 12 40 d6 30 a9 3f 46 5e 7e bf f3 e0 42 40
       2.2939358 1.3218029 -0.993626 3.0449798
0002f0 b4 a0 d4 3e 8b e6 5a bf 00 4e c0 bd 28 26 20 40
       0.41528857 -0.8550803 -0.09389877 2.5023289
000300 5c d8 87 3f d1 31 8d c0 c0 1c be bd bc 94 78 3f
       1.0612903 -4.412331 -0.092828274 0.9710195
000310 5c aa 4e be b0 88 07 3d 18 6c 59 40 0e 77 cf 3f
       -0.20182174 0.03308934 3.3972225 1.6208208
000320 84 f9 f9 c0 a7 4c 4f c0 fa c1 25 40 17 f2 ed 3e
       -7.8117085 -3.2390535 2.5899644 0.46473762
000330 76 f2 e0 3e c4 f7 23 3f c0 e0 13 c0 a7 92 9d c0
       0.43934983 0.64049935 -2.3105927 -4.924152
000340 58 ca 95 40 ac 38 20 40 f0 b5 9a bd 88 bd 98 c0
       4.68095 2.503459 -0.07554233 -4.773136
000350 b2 95 a9 bf 83 84 ff 3f 43 bd 67 c0 b8 68 19 c0
       -1.3248808 1.9962314 -3.6209266 -2.3970165
000360 a7 b2 80 c0 80 0e 62 c0 61 1b df 3f d8 99 92 40
       -4.021808 -3.532135 1.743023 4.5812798
000370 02 73 01 c0 32 ce 27 40 9c dc d8 3e 5d 57 22 41
       -2.0226445 2.6219602 0.42355812 10.146329
000380 34 6d 93 3e 55 13 29 c0 7f 6a 91 bf c4 f3 54 c0
       0.28794253 -2.641805 -1.1360625 -3.3273783
000390 07 a4 bb 3f f0 6a 6d c0 0f 08 3e c0 0a e4 65 bf
       1.4659432 -3.709652 -2.9692419 -0.89801085
0003a0 b2 a8 0a 3f f0 d1 89 3e dc df 9d 40 c0 56 25 c0
       0.5416366 0.26917982 4.9335766 -2.5834198
0003b0 5a 51 27 3f e3 de a8 3f 06 2a d1 be aa 33 23 3f
       0.6535851 1.319302 -0.40852374 0.6375071
0003c0 36 29 a1 3f 0c d4 19 c0 5f 9d 00 c0 b6 9f eb bf
       1.2590702 -2.4035673 -2.0096052 -1.8408115
0003d0 5e 14 5b 40 f8 24 c1 3e b9 ad e1 bf 47 7d fb 3f
       3.423118 0.37723517 -1.7631141 1.9647607
0003e0 54 38 11 40 74 39 32 bf 44 87 af 3f 25 59 3c 40
       2.269063 -0.69618917 1.3713155 2.942941
0003f0 f0 9e ea 3e 2a d8 ee bf 71 76 21 40 3f bf 7a 40
       0.45824385 -1.8659718 2.522854 3.9179227
