src/visualize/sequence_output/LastFM_SASRec/5layer_4iter.npy (npy, 844928 bytes, 1 tensors)

array f4 [66, 50, 64]
-0.10630435 -0.8153061 -0.13991329 0.44943622 -0.01501083 0.500349 -0.029272567 0.6436904
-1.7343732 0.036074318 -0.5168966 0.113824144 -1.066566 0.831586 -2.106399 -2.2448194
0.3409916 0.02189264 0.6580079 0.43976012 0.031174487 -0.195445 -0.62672985 1.4784176
1.8678488 0.1840017 2.0787418 -0.5046721 0.2137526 -0.13839358 1.7395914 0.31478477
1.3949667 -0.06780073 -0.19657439 -0.62983185 -1.3422163 -0.30598685 -1.4011152 0.7679856
1.6253945 -2.2338767 0.34967345 0.16954084 -0.6369791 -0.817845 0.24783836 0.013602413
-1.210202 -0.4816274 1.5044541 -2.6059237 0.010824781 1.2895603 -0.67535985 0.39607337
-0.04479441 0.95684326 -0.5580479 1.5525879 0.83445954 0.67264885 -1.396073 0.3671278
0.17646033 -0.92093325 -0.20062804 0.68429947 0.0014852803 0.14305489 -0.3486312 0.020631582
-1.5811183 0.1822006 0.82273275 -0.81854695 -0.60943407 1.4818411 -3.272958 -0.85226417
0.68065375 1.2163001 0.23400241 -0.3030736 -0.35603112 -1.7830613 1.0081627 0.53834003
0.8974065 0.37850073 2.1676888 0.6606819 -1.1973071 -0.39276284 1.1586425 1.1102159
0.69680077 -0.91298527 -0.038408615 0.0826304 0.6689636 -1.0784248 -1.3101954 -0.93743217
0.88441706 -1.59883 0.19716983 0.36275467 -0.41513115 2.1968222 0.7107733 0.0070768893
-0.33805445 0.15817665 1.6756402 0.54764426 0.42394522 -0.07648411 -0.6537222 0.62218875
-0.34695333 2.2532473 -0.9171374 -0.5762957 -0.6390785 -0.241975 -0.41200167 -2.2699878
-0.40129605 0.21718259 -0.44248015 0.52721596 0.13962974 0.27613842 -0.56574774 -0.48475182
-2.5478904 0.030665006 -0.054998685 -0.8546869 -0.9408362 1.1830506 -3.1897454 -2.310803
1.7181097 2.1056647 0.12826477 -0.037659906 0.019213928 -1.7114077 -0.46833804 0.46294683
0.7270132 0.1889883 2.1583755 -0.16362633 -0.1851141 -0.20898612 1.6571704 -0.19120812
1.1430321 -0.49021474 -0.025294144 0.9588398 0.78111637 -0.53476274 -0.13275762 -0.79166174
0.92456627 -1.2472087 0.15303193 -0.13922158 -0.23951347 0.46295935 0.7025453 0.3439814
-0.6257864 -0.0074135903 0.4006266 0.30285165 0.44991103 0.7641478 0.025026046 -0.172961
0.1635031 1.5704424 -1.2659136 0.45773017 -2.6289887 0.8429929 -0.1843402 0.98725355
-0.39329198 -0.1639023 0.68886214 0.52933997 0.2815537 -0.17761792 -0.10449857 0.7863222
-2.11864 0.0012162998 1.7249057 -0.0936263 0.4873565 0.051182367 -2.631277 -2.2545688
1.053768 0.46884564 0.5647946 -0.30123243 0.5587691 0.5053498 -1.5346826 -0.6329059
-0.4593405 -0.0456566 1.2588887 0.8154981 -2.4602067 -0.35305455 0.590823 2.0161953
1.1557137 -1.0924417 -0.08526718 -1.1040207 0.7663332 -2.241062 0.7966329 0.2622287
0.744657 -0.9929661 0.26873693 0.04041314 0.4671145 0.5541181 0.6424815 -0.5588323
-0.21397686 0.4333087 -0.44351244 -0.7514761 0.6223801 -0.8903165 1.4438959 -0.73765045
-0.15945937 0.76710343 0.05150362 0.054864123 -1.5344943 -0.014385199 0.12417743 2.751216
00000000: 18b6 d9bd e7b7 50bf 6e45 0fbe 811c e63e
00000010: fcef 75bc df16 003f 06cd efbc e5c8 243f
00000020: f1ff ddbf aac2 133d 5653 04bf a21c e93d
00000030: 3c85 88bf d2e2 543f 3ecf 06c0 1fab 0fc0
00000040: 7396 ae3e 3258 b33c 3573 283f 3d28 e13e
00000050: a361 ff3c bc22 48be 5e71 20bf ca3c bd3f
00000060: ab15 ef3f f16a 3c3e 1b0a 0540 3132 01bf
00000070: f6e1 5a3e 0cb7 0dbe eeaa de3f 782b a13e
00000080: 458e b23f 1cdb 8abd cc4a 49be a93c 21bf
00000090: becd abbf 4faa 9cbe be57 b3bf b49a 443f
000000a0: ed0c d03f d6f7 0ec0 6608 b33e 1d9c 2d3e
000000b0: 1011 23bf 4a5e 51bf 57c9 7d3e a8dc 5e3c
000000c0: e6e7 9abf de97 f6be f491 c03f 74c7 26c0
000000d0: 6c5a 313c 5010 a53f 62e4 2cbf 21ca ca3e
000000e0: 587a 37bd aef3 743f 3adc 0ebf 33bb c63f
000000f0: 249f 553f b732 2c3f 85b2 b2bf 2df8 bb3e
00000100: 04b2 343e 48c2 6bbf 7071 4dbe 402e 2f3f
00000110: bdad c23a fb7c 123e ca7f b2be 9003 a93c
00000120: 1662 cabf cb92 3a3e 9d9e 523f 4b8c 51bf
00000130: df03 1cbf f8ac bd3f 2578 51c0 fc2d 5abf
00000140: 533f 2e3f b9af 9b3f 549e 6f3e 772c 9bbe
00000150: b649 b6be 5a3b e4bf 7a0b 813f a7d0 093f
00000160: 6fbc 653f d9ca c13e 6abb 0a40 7322 293f
00000170: 5c41 99bf 3618 c9be 664e 943f 8e1b 8e3f
00000180: 8961 323f 67b9 69bf 5a52 1dbd 213a a93d
00000190: 3341 2b3f d309 8abf 7cb4 a7bf 8efb 6fbf
000001a0: 2869 623f 76a6 ccbf e3e6 493e fbba b93e
000001b0: 128c d4be bc98 0c40 3df5 353f 40e5 e73b
000001c0: 7915 adbe 0ff9 213e 617b d63f 6a32 0c3f
000001d0: 590f d93e b3a3 9cbd 575a 27bf c347 1f3f
000001e0: dea3 b1be 3435 1040 84c9 6abf 1d88 13bf
000001f0: a69a 23bf 4bc8 77be e2f1 d2be 7b47 11c0
00000200: ad76 cdbe 1d65 5e3e c28c e2be a0f7 063f
00000210: 19fb 0e3e 0462 8d3e d8d4 10bf 6431 f8be
00000220: a310 23c0 2e35 fb3c 4d46 61bd c3cc 5abf
00000230: a4da 70bf 346e 973f ca24 4cc0 32e4 13c0
00000240: 05eb db3f 36c3 0640 d757 033e 4641 1abd
00000250: 8766 9d3c 680f dbbf 01ca efbe 5e07 ed3e
00000260: 891d 3a3f 2686 413e d322 0a40 a98d 27be
00000270: 8d8e 3dbe 7500 56be 291e d43f 10cc 43be
00000280: e04e 923f 6dfd fabe aa35 cfbc 8676 753f
00000290: 3ef7 473f 36e6 08bf 9df1 07be 58aa 4abf
000002a0: 60b0 6c3f 89a4 9fbf 67b4 1c3e 1a90 0ebe
000002b0: 0543 75be 0209 ed3e 02da 333f 541e b03e
000002c0: 8a33 20bf b4ed f2bb ee1e cd3e 5f0f 9b3e
000002d0: bd5a e63e 319f 433f 6c03 cd3c b01c 31be
000002e0: 5b6d 273e 4204 c93f 7509 a2bf 9c5b ea3e
000002f0: 5a41 28c0 62ce 573f adc3 3cbe a6bc 7c3f
00000300: 915d c9be 01d6 27be 4559 303f d382 073f
00000310: ce27 903e 79e1 35be 5903 d6bd 694c 493f
00000320: cc97 07c0 406c 9f3a b6c9 dc3f 25bf bfbd
00000330: cb86 f93e 9aa4 513d d866 28c0 db4a 10c0
00000340: dfe1 863f 890c f03e 6196 103f 233b 9abe
00000350: 7e0b 0f3f 9b5e 013f 7b70 c4bf 1f06 22bf
00000360: ae2e ebbe 6a02 3bbd 4423 a13f 7cc4 503f
00000370: 0774 1dc0 91c3 b4be 2d40 173f 5809 0140
00000380: 6dee 933f 21d5 8bbf 8fa0 aebd 8d50 8dbf
00000390: 6a2e 443f 8f6d 0fc0 22f0 4b3f d742 863e
000003a0: d7a1 3e3f 0733 7ebf e397 893e 4088 253d
000003b0: a229 ef3e afda 0d3f ab79 243f a20f 0fbf
000003c0: c01c 5bbe a3da dd3e 1014 e3be bd60 40bf
000003d0: 4d54 1f3f c8eb 63bf 95d1 b83f a9d6 3cbf
000003e0: 5149 23be e460 443f 76f5 523d 34b9 603d
000003f0: 4f6a c4bf e6af 6bbc bd50 fe3d ec13 3040
