src/visualize/sequence_output/LastFM_SASRec/8layer_4iter.npy (npy, 844928 bytes, 1 tensors)

array f4 [66, 50, 64]
0	0xbee3a0ef	-0.4445872
1	0xbf9421c7	-1.1572808
2	0xbe42bfac	-0.1901843
3	0xbe00efe5	-0.12591513
4	0xbe3939e8	-0.18088496
5	0x3f404eb4	0.7512009
6	0x3d2db3e1	0.042407874
7	0x3f5e482c	0.86828876
8	0xbff4e9a3	-1.91338
9	0xbe553d59	-0.20824184
10	0xbedc4d29	-0.4302762
11	0x3e10b0ad	0.14129896
12	0xbebc5b39	-0.36788347
13	0x3f327850	0.6971483
14	0xbfdf2017	-1.7431668
15	0xc013d19e	-2.309669
16	0x3ebc7249	0.36805943
17	0x3f235230	0.63797283
18	0x3ec547a3	0.38531217
19	0x3e264b07	0.16239558
20	0xbd982c56	-0.074303314
21	0x3e07b9e8	0.13254511
22	0xbe9ee25e	-0.3103208
23	0x3f96ed6d	1.1791207
24	0x3ff502e5	1.9141508
25	0x3df6d762	0.120528
26	0x4012bf08	2.2929096
27	0xbf023cab	-0.5087382
28	0x3f34877d	0.7051924
29	0xbc0993e4	-0.008397076
30	0x4004fbd4	2.0778704
31	0x3e1e311c	0.15448421
32	0x3f429690	0.7601099
33	0x3e06bd3b	0.13158123
34	0x3e9afc02	0.30270392
35	0xbf6358e7	-0.8880753
36	0xbf729309	-0.9475561
37	0xbecb2ee2	-0.39684206
38	0xbfe55994	-1.7917962
39	0x3f58b3b7	0.84649223
40	0x3f8dc764	1.1076474
41	0xc005926b	-2.0870616
42	0xbce152ad	-0.027505243
43	0x3e3e51bc	0.18585867
44	0xbe8d4481	-0.27591327
45	0xbf69ad00	-0.912796
46	0x3d8584fd	0.06519506
47	0xbd1681b3	-0.036744785
48	0xbf86e485	-1.0538489
49	0x3ebafcab	0.36520895
50	0x40002ce3	2.0027397
51	0xc0187296	-2.3819938
52	0x3dfb5004	0.12271121
53	0x3fa5659e	1.2921636
54	0xbf65fa8a	-0.8983542
55	0x3c8b5295	0.017007152
56	0xbddace52	-0.10683884
57	0x3f67d604	0.90560937
58	0xbf907d22	-1.1288188
59	0x3fcf5c67	1.6200074
60	0x3ebd14c1	0.36929896
61	0x3f17e6f3	0.59336776
62	0xbfbfab2a	-1.497411
63	0x3f223cee	0.6337422
64	0x3e500391	0.2031386
65	0xbf994c51	-1.1976415
66	0xbd5cd068	-0.05390969
67	0x3e0ab966	0.13547286
68	0x3b8a5b71	0.0042223264
69	0x3e4b4db9	0.19853868
70	0xbe11c861	-0.14236595
71	0x3eb3a21c	0.35084617
72	0xbfd41398	-1.656848
73	0xbe90f55f	-0.28312203
74	0x3f6d910c	0.9279945
75	0xbe5184a4	-0.20460755
76	0xbe89bba4	-0.2690097
77	0x3f6061cc	0.87649226
78	0xc049e2b3	-3.1544616
79	0xbf540f01	-0.82835394
80	0x3f37c5c5	0.7178615
81	0x3fc65e8d	1.5497605
82	0x3e87d205	0.2652742
83	0xbf0c2506	-0.54743993
84	0xbedd289a	-0.4319504
85	0xbfdf2649	-1.7433559
86	0x3f96997f	1.1765593
87	0x3e8406db	0.2578648
88	0x3f6c061b	0.92196816
89	0xbcd82d36	-0.026388746
90	0x401d2c02	2.455811
91	0x3f4f12c0	0.80887985
92	0xbf768d67	-0.9630951
93	0xbdfce231	-0.1234783
94	0x3fd60449	1.6720058
95	0x3fa53b5d	1.2908741
96	0x3eacecea	0.337745
97	0xbf6df860	-0.92957115
98	0xbe657dae	-0.22411224
99	0x3d7b44a2	0.06134475
100	0x3f19edb2	0.6012832
101	0xbface1e7	-1.350644
102	0xbfb9c594	-1.4513421
103	0xbf74b503	-0.955887
104	0x3f50c2d6	0.81547296
105	0xbfacf0d6	-1.3510997
106	0xbe5ff25b	-0.21869795
107	0x3e259a47	0.16172133
108	0xbebb9d54	-0.3664347
109	0x3fffc0ae	1.9980676
110	0x3f0c7395	0.54863864
111	0xbe5392f6	-0.2066153
112	0xbf085685	-0.5325702
113	0x3e5c314b	0.21503179
114	0x3ffe96cf	1.9889773
115	0x3f65bf41	0.89744955
116	0x3f298002	0.6621095
117	0x3dd2a435	0.10285226
118	0xbea09764	-0.31365502
119	0x3e935aa2	0.28780085
120	0x3b9f0238	0.0048525594
121	0x4005912e	2.086986
122	0xbf92d082	-1.1469882
123	0xbe985fe7	-0.29760668
124	0xbf185855	-0.59509784
125	0xbedb94e1	-0.42887023
126	0xbf14aa15	-0.58072025
127	0xbff6b5fa	-1.9274285
128	0xbea9bf31	-0.3315368
129	0xbdff7197	-0.124728374
130	0xbe7d598c	-0.2474119
131	0x3e03d692	0.12874821
132	0x3d00aa90	0.03141266
133	0x3db005d2	0.0859486
134	0x3c901d91	0.017592223
135	0xbe07f7d2	-0.1327813
136	0xc02b68dd	-2.6782753
137	0xbe9c9a94	-0.30586684
138	0x3e1d13ff	0.15339659
139	0xbea97829	-0.33099487
140	0xbf0a91eb	-0.54128903
141	0x3f307a88	0.6893697
142	0xc0452fa4	-3.0810328
143	0xc00fac49	-2.2448905
144	0x3fe28b21	1.7698709
145	0x4021cf80	2.5282898
146	0x3e4f70a6	0.20257816
147	0xbef33ee3	-0.47508916
148	0xbe99fb78	-0.30074668
149	0xbfd026bb	-1.626182
150	0xbe732300	-0.2374382
151	0x3d2921f2	0.04129214
152	0x3f2b5285	0.6692279
153	0xbe85307d	-0.26013556
154	0x401cb8e2	2.4487844
155	0xbd58b2df	-0.05290496
156	0xbe1adcca	-0.15123287
157	0xbc9b09d4	-0.018925585
158	0x40082a78	2.127592
159	0x3da9879a	0.08277817
160	0x3f24b924	0.64345
161	0xbf303184	-0.68825555
162	0xbe1a327c	-0.15058321
163	0x3f7d42cc	0.9893005
164	0x3f282cfa	0.6569363
165	0xbf389753	-0.721059
166	0xbeb372db	-0.35048565
167	0xbf2e6ce8	-0.6813493
168	0x3f3d3531	0.7390929
169	0xbf626f02	-0.88450634
170	0xbda7cc52	-0.08193268
171	0x3c6f7e29	0.014617481
172	0xbe63f4c4	-0.2226134
173	0x3ed3831f	0.41310975
174	0x3eb6eb0f	0.3572621
175	0xbe10fa46	-0.14157972
176	0xbf4a0ef0	-0.7892904
177	0x3e3a1eba	0.18175784
178	0x3f33d404	0.70245385
179	0x3f24e13d	0.64406186
180	0x3f418ac1	0.75602347
181	0x3f564c59	0.8371025
182	0x3dc3f98c	0.09569082
183	0xbe55c548	-0.20876038
184	0x3e7043f9	0.2346343
185	0x3fac61f4	1.3467393
186	0xbfbeda70	-1.4910412
187	0x3f467019	0.775148
188	0xc008776d	-2.1322892
189	0x3eaa49c2	0.33259398
190	0xbeb0d1c9	-0.34535053
191	0x3fc69849	1.5515224
192	0xbe9e8cf2	-0.30966908
193	0xbf0a73ee	-0.54083145
194	0x3f4253f5	0.7590936
195	0x3dad42cd	0.08460007
196	0x3d96113a	0.073275045
197	0xbe5a5106	-0.2131997
198	0x3e03773b	0.12838452
199	0x3f8e4964	1.1116147
200	0xc0017b19	-2.0231383
201	0xbe541367	-0.20710526
202	0x3fca874e	1.5822542
203	0x3e5923fa	0.2120513
204	0x3ee1af23	0.4407893
205	0x3e2dfa0c	0.16989917
206	0xc02ac5f0	-2.6683311
207	0xc008a29e	-2.1349254
208	0x3fb94e29	1.4476978
209	0x3f4e8b03	0.80680865
210	0x3e7a1332	0.24421385
211	0xbebde922	-0.3709193
212	0x3e855060	0.26037884
213	0x3f473054	0.7780812
214	0xbfbb3060	-1.4624138
215	0xbf44f974	-0.76943135
216	0xbf734d51	-0.9503985
217	0xbeca5a01	-0.39521793
218	0x3f92156b	1.1412786
219	0x3f2c9674	0.67417073
220	0xc00c9fc0	-2.1972504
221	0x3ccc59be	0.024945136
222	0x3f182468	0.5943055
223	0x4016188d	2.3452485
224	0x3f6f42e0	0.9346142
225	0xbfac4ded	-1.3461281
226	0x3dc5c7a2	0.096572176
227	0xbf9380f0	-1.1523724
228	0x3eb9479c	0.36187446
229	0xc019e03e	-2.4043117
230	0x3f3fc2f8	0.74906874
231	0xbe042442	-0.12904456
232	0x3f315e04	0.6928408
233	0xbf742859	-0.95374066
234	0x3e98db33	0.29854736
235	0x3bf5322c	0.0074827876
236	0x3f10e9fb	0.56607026
237	0x3f54dd3b	0.8315007
238	0x3eba870c	0.36431158
239	0xbef70132	-0.482431
240	0xbd0e68c5	-0.034767885
241	0x3e72d74e	0.23714945
242	0xbed09ddb	-0.40745434
243	0xbeece8ef	-0.46271464
244	0x3f3454a3	0.70441645
245	0xbf243f6e	-0.64159286
246	0x3f8dec4a	1.1087735
247	0xbedb10bf	-0.42786214
248	0x3eac2178	0.33619285
249	0x3f092c33	0.5358307
250	0x3cb4fa24	0.022091933
251	0x3eec599b	0.46162114
252	0xbfa44de7	-1.2836274
253	0xbeca469a	-0.3950699
254	0x3ea721bb	0.32642922
255	0x40347a56	2.8199668
