src/visualize/sequence_output/LastFM_SASRec/9layer_4iter.npy (npy, 844928 bytes, 1 tensors)

array f4 [66, 50, 64]
000000 fd 34 11 bf b2 c3 95 bf 3b de d3 be 3e f2 85 be
       -0.5672148 -1.1700346 -0.41380486 -0.2616138
000010 18 35 ab be 68 b3 58 3f 57 4c 68 3e 30 72 7d 3f
       -0.33438945 0.8464875 0.22685371 0.9900236
000020 44 1b f4 bf 8f 62 ee be 00 77 0b bf 01 b6 23 3e
       -1.9070821 -0.4655957 -0.54478455 0.15987398
000030 34 34 9f bd 2d dc 13 3f b0 ab c2 bf 85 26 0d c0
       -0.07773629 0.57757837 -1.5208645 -2.205476
000040 38 49 10 3f e1 76 36 3f b6 92 13 3e aa 92 8b be
       0.5636172 0.71275145 0.14411435 -0.27260333
000050 83 83 bf bd 17 9f aa 3d dc c8 b1 bd 85 c1 6a 3f
       -0.09351256 0.08331125 -0.08680889 0.9170154
000060 8e 97 02 40 ac 36 bb bc e4 2b 11 40 6b d4 09 bf
       2.0405002 -0.022853218 2.2683039 -0.5383975
000070 62 bb 1f 3f b3 d5 d3 3d 52 63 08 40 0e ea 67 3e
       0.623953 0.10343494 2.131062 0.22647879
000080 3a 06 2d 3f 9d ce 52 3d 4b 6c fa 3e b1 e7 7a bf
       0.67587626 0.051466573 0.48910746 -0.98009783
000090 a9 6f 65 bf 07 83 b3 be e9 85 f4 bf 7e c0 71 3f
       -0.89623505 -0.35060903 -1.9103366 0.94434345
0000a0 64 01 82 3f 6e d5 ef bf 5b 2f 93 3e aa 87 90 3d
       1.0156674 -1.8737009 0.28747067 0.07057126
0000b0 a8 c4 8b be 45 79 75 bf fd 3a 67 3c 1b 44 34 bd
       -0.27298474 -0.9588817 0.014113185 -0.044010263
0000c0 cf f1 98 bf 50 27 94 3e 2d b5 08 40 d0 73 18 c0
       -1.1948794 0.28936243 2.136058 -2.3820686
0000d0 7d 51 48 3e bc 20 bd 3f 1e d2 7d bf 24 81 91 3d
       0.19562335 1.4775615 -0.9914874 0.0710471
0000e0 ce 4e 82 bd 3b 28 61 3f ce a3 90 bf a2 10 c1 3f
       -0.06362687 0.8795201 -1.1299989 1.5083201
0000f0 42 38 bc 3e 92 15 44 3f d0 90 9b bf ad 39 03 3f
       0.3676167 0.76595414 -1.2153568 0.5125988
000100 55 6a 75 3e f2 35 8f bf 67 95 9e be 2f 0d e9 3d
       0.23966344 -1.1188338 -0.3097336 0.11379468
000110 4d 88 35 be 2b 0e f2 3d 46 14 af 3c 63 6b cc 3e
       -0.17727776 0.118191086 0.021371972 0.3992568
000120 98 3a de bf ff 9d 1e bf da f5 52 3f 22 91 9d bd
       -1.7361631 -0.6195983 0.8240639 -0.076936975
000130 48 c6 10 be ec 62 03 3f 0d 59 43 c0 94 c4 3f bf
       -0.14138138 0.5132282 -3.0523102 -0.7490933
000140 34 74 3e 3f 0f fb c5 3f 78 e3 50 3e 5f ec 4b bf
       0.7439606 1.5467242 0.20399272 -0.7965755
000150 fa 63 0f bf 1d af da bf b1 df a0 3f 6b 06 07 3d
       -0.5601193 -1.708469 1.2568265 0.032965105
000160 ee b2 72 3f 69 3d 21 bd 82 87 22 40 a2 79 39 3f
       0.94804275 -0.039365206 2.5395207 0.7245122
000170 9a 39 83 bf c0 ba 93 3c 7d 6b ec 3f 07 c1 a9 3f
       -1.0251954 0.018033385 1.8470303 1.3262032
000180 8f ba 98 3e 70 85 79 bf 75 3f c7 be 0c 88 96 3d
       0.29829833 -0.97469234 -0.389156 0.07350168
000190 34 50 27 3f b8 68 aa bf 23 b3 b7 bf 71 c0 3c bf
       0.65356755 -1.3313208 -1.4351543 -0.7373114
0001a0 0a c3 85 3f 43 28 97 bf 84 eb 4c 3d c6 6c 43 3e
       1.0450146 -1.1809162 0.050029293 0.19084463
0001b0 28 e8 7e be 34 2f fc 3f ad e6 eb 3e ca e1 b3 be
       -0.24893248 1.9701905 0.4607443 -0.351332
0001c0 ea 2d 1f bf ed 01 7c bd 37 90 05 40 f2 14 8c 3f
       -0.62179434 -0.061525274 2.0869272 1.0943892
0001d0 c7 88 40 3f f8 2d 86 3d 8d dc 1c be b8 57 1e 3e
       0.75208706 0.065517366 -0.15318508 0.1546315
0001e0 bd 74 94 3d da ec ff 3f 33 ff 89 bf b9 2b ae be
       0.072488286 1.9994156 -1.0781006 -0.34017733
0001f0 90 8e ff be 56 4a b7 be a6 ad 09 bf 95 f3 ed bf
       -0.49913454 -0.357989 -0.5378059 -1.858996
000200 ad e4 b3 be a0 fc 00 be f1 67 d8 be c0 a2 d1 b9
       -0.35135403 -0.12596369 -0.422668 -0.00039984845
000210 26 8d 9a be e2 b8 c6 3d 64 cf 61 3e fe 85 50 bd
       -0.30185813 0.09703232 0.2205177 -0.050909035
000220 a1 1f 31 c0 5e f9 13 bf 28 e5 8f 3d 56 58 48 be
       -2.7675555 -0.5780238 0.0702613 -0.19564947
000230 25 d1 c2 be 49 ea c5 3e a9 b4 3b c0 01 e7 0e c0
       -0.3805019 0.38655308 -2.9329016 -2.2328494
000240 21 9d ec 3f 1b b2 21 40 61 55 00 bd 92 77 42 bf
       1.8485452 2.5264957 -0.031331424 -0.759637
000250 43 1a 9f be e8 69 d8 bf 34 60 04 be b0 75 34 be
       -0.31074724 -1.690732 -0.12927324 -0.17623019
000260 f2 06 33 3f d8 e1 74 be 87 04 1d 40 5a 57 9c bd
       0.6993247 -0.23914278 2.4534013 -0.076338485
000270 a7 3f 82 be 28 b5 d8 3d e9 ad 08 40 7b 96 55 3e
       -0.25439188 0.10581428 2.1356146 0.20858185
000280 af c9 2f 3f 1d 12 32 bf 49 9c 89 be cb 4e 62 3f
       0.6866712 -0.6955889 -0.2687705 0.8840148
000290 4d f0 3d 3f 27 3c 38 bf c0 ad c3 be 95 6d 0b bf
       0.74194795 -0.71966785 -0.38218498 -0.54464084
0002a0 dc 6a 44 3f 65 f0 44 bf 48 05 92 3e 76 cd c8 3d
       0.76725554 -0.7692931 0.28519654 0.098048136
0002b0 35 df 6b be a9 11 ee 3e 0e fb a4 3e 14 11 9d be
       -0.23034365 0.4649785 0.3222279 -0.30677092
0002c0 4c 15 5a bf 24 57 53 3d 8e 41 4f 3f 6a d8 34 3f
       -0.85188746 0.051596776 0.80959404 0.7064272
0002d0 48 f6 6c 3f 7e a2 73 3f e4 89 ba 3d 6a 0b 21 be
       0.92563295 0.9516982 0.09108332 -0.1572701
0002e0 7c 8d ae 3e cb 95 aa 3f e8 02 bc bf 2c c0 28 3f
       0.3409232 1.3326963 -1.4688387 0.6591823
0002f0 18 a4 f2 bf b1 2d cf 3e 7e 2d a7 be 23 7d c3 3f
       -1.8956327 0.40464547 -0.32651895 1.5272564
000300 3b 5d 95 be 54 cf ed be 92 e8 24 3f 51 64 10 be
       -0.29172692 -0.4644724 0.64417374 -0.14100768
000310 3f b7 4c be 6c 5e 73 be f4 11 bb 3e e0 26 8d 3f
       -0.19991778 -0.23766488 0.36537135 1.1027489
000320 07 36 fd bf 4a 15 9a be 04 0a b5 3f 12 8b 64 3e
       -1.9782113 -0.30094367 1.4143682 0.22318676
000330 cf 11 da 3e ea c6 79 3d 0f 3d 23 c0 1b 6a 03 c0
       0.42591712 0.060980715 -2.5506017 -2.0533512
000340 93 d0 c8 3f 69 35 5e 3f 42 8f 15 be 38 87 08 bf
       1.5688652 0.8680025 -0.1460543 -0.5333133
000350 e0 86 7f 3e ee 27 2b 3f 59 d4 ba bf 8e 3c 57 bf
       0.24953794 0.668578 -1.4596053 -0.84076774
000360 98 11 6a bf 87 49 8b be 45 f6 88 3f b1 30 44 3f
       -0.91433096 -0.27204534 1.0700155 0.766368
000370 7e ee 1c c0 c0 3f 42 3e 09 74 00 3f 33 26 25 40
       -2.4520564 0.18969631 0.50177056 2.5804565
000380 98 94 81 3f 1c c5 ad bf 9e 13 d2 3d a5 11 99 bf
       1.0123472 -1.3575778 0.10257648 -1.195851
000390 06 7e 91 3e c7 d4 1d c0 12 ad 4f 3f ad 9f 8b be
       0.2841646 -2.466112 0.8112346 -0.2727026
0003a0 cc b7 08 3f 99 dc 5d bf 74 84 33 3f b8 88 9c 3b
       0.5340545 -0.8666473 0.7012398 0.0047770403
0003b0 7b 37 13 3f e9 5f 6a 3f 5f 43 c1 3e e2 93 e2 be
       0.5750653 0.915526 0.37746713 -0.4425345
0003c0 98 57 98 3c ac 05 78 3e 81 37 d9 be c4 0b f9 be
       0.018596455 0.24220914 -0.4242516 -0.4864179
0003d0 14 0f 48 3f 66 b3 dc be 8f e6 6e 3f 7a 71 92 be
       0.7814801 -0.4310562 0.93320554 -0.286022
0003e0 6e 57 e7 3e 6b f7 f0 3e 5a 10 27 bd 4e ca d4 3e
       0.4518389 0.47063765 -0.04078708 0.41560596
0003f0 38 28 8b bf a1 59 88 be 4f cc ae 3e 72 49 2a 40
       -1.0871649 -0.2663088 0.3414025 2.6607327
